…
2023-05-14 15:46:15,845 INFO: Dataset [PairedImageDataset] - B100 is built.
2023-05-14 15:46:15,845 INFO: Number of val images/folders in B100: 100
2023-05-14 15:46:15,848 INFO: Dataset [PairedImageDataset] - Urban100 is built.
2023-05-14 15:46:15,848 INFO: Number of val images/folders in Urban100: 100
2023-05-14 15:46:15,851 INFO: Dataset [PairedImageDataset] - Manga109 is built.
2023-05-14 15:46:15,851 INFO: Number of val images/folders in Manga109: 109
2023-05-14 15:46:15,892 INFO: Network [sh7vanmul] is created.
2023-05-14 15:46:16,887 INFO: Network: sh7vanmul, with parameters: 372,819
2023-05-14 15:46:16,887 INFO: sh7vanmul(
  (to_feat): Conv2d(3, 64, kernel_size=(3, 3), stride=(1, 1), padding=(1, 1), bias=False)
  (blocks): Sequential(
    (0): FMBlock(
      (net): Sequential(
        (0): SMLayer(
          (norm1): LayerNorm(
            (body): BiasFree_LayerNorm()
          )
          (norm2): LayerNorm(
            (body): BiasFree_LayerNorm()
          )
          (spatial): Conv2d(64, 64, kernel_size=(7, 7), stride=(1, 1), padding=(3, 3), groups=64)
          (mlp1): SplitPointMlp(
            (fc): Sequential(
              (0): Conv2d(32, 64, kernel_size=(1, 1), stride=(1, 1))
              (1): SiLU(inplace=True)
              (2): Conv2d(64, 32, kernel_size=(1, 1), stride=(1, 1))
            )
          )
          (mlp2): SplitPointMlp(
            (fc): Sequential(
              (0): Conv2d(32, 64, kernel_size=(1, 1), stride=(1, 1))
              (1): SiLU(inplace=True)
              (2): Conv2d(64, 32, kernel_size=(1, 1), stride=(1, 1))
            )
          )
          (attn): Attention(
            (pointwise): Conv2d(64, 64, kernel_size=(1, 1), stride=(1, 1))
            (depthwise): Conv2d(64, 64, kernel_size=(5, 5), stride=(1, 1), padding=(2, 2), groups=64)
            (depthwise_dilated): Conv2d(64, 64, kernel_size=(5, 5), stride=(1, 1), padding=(6, 6), dilation=(3, 3), groups=64)
          )
        )
      )
      (conv): Sequential(
        (0): Conv2d(64, 80, kernel_size=(3, 3), stride=(1, 1), padding=(1, 1))
        (1): SiLU(inplace=True)
        (2): Conv2d(80, 64, kernel_size=(1, 1), stride=(1, 1))
      )
    )
    (1): FMBlock(
      (net): Sequential(
        (0): SMLayer(
          (norm1): LayerNorm(
            (body): BiasFree_LayerNorm()
          )
          (norm2): LayerNorm(
            (body): BiasFree_LayerNorm()
          )
          (spatial): Conv2d(64, 64, kernel_size=(7, 7), stride=(1, 1), padding=(3, 3), groups=64)
          (mlp1): SplitPointMlp(
            (fc): Sequential(
              (0): Conv2d(32, 64, kernel_size=(1, 1), stride=(1, 1))
              (1): SiLU(inplace=True)
              (2): Conv2d(64, 32, kernel_size=(1, 1), stride=(1, 1))
            )
          )
          (mlp2): SplitPointMlp(
            (fc): Sequential(
              (0): Conv2d(32, 64, kernel_size=(1, 1), stride=(1, 1))
              (1): SiLU(inplace=True)
              (2): Conv2d(64, 32, kernel_size=(1, 1), stride=(1, 1))
            )
          )
          (attn): Attention(
            (pointwise): Conv2d(64, 64, kernel_size=(1, 1), stride=(1, 1))
            (depthwise): Conv2d(64, 64, kernel_size=(5, 5), stride=(1, 1), padding=(2, 2), groups=64)
            (depthwise_dilated): Conv2d(64, 64, kernel_size=(5, 5), stride=(1, 1), padding=(6, 6), dilation=(3, 3), groups=64)
          )
        )
      )
      (conv): Sequential(
        (0): Conv2d(64, 80, kernel_size=(3, 3), stride=(1, 1), padding=(1, 1))
        (1): SiLU(inplace=True)
        (2): Conv2d(80, 64, kernel_size=(1, 1), stride=(1, 1))
      )
    )
    (2): FMBlock(
      (net): Sequential(
        (0): SMLayer(
          (norm1): LayerNorm(
            (body): BiasFree_LayerNorm()
          )
          (norm2): LayerNorm(
            (body): BiasFree_LayerNorm()
          )
          (spatial): Conv2d(64, 64, kernel_size=(7, 7), stride=(1, 1), padding=(3, 3), groups=64)
          (mlp1): SplitPointMlp(
            (fc): Sequential(
              (0): Conv2d(32, 64, kernel_size=(1, 1), stride=(1, 1))
              (1): SiLU(inplace=True)
              (2): Conv2d(64, 32, kernel_size=(1, 1), stride=(1, 1))
            )
          )
          (mlp2): SplitPointMlp(
            (fc): Sequential(
              (0): Conv2d(32, 64, kernel_size=(1, 1), stride=(1, 1))
              (1): SiLU(inplace=True)
              (2): Conv2d(64, 32, kernel_size=(1, 1), stride=(1, 1))
            )
          )
          (attn): Attention(
            (pointwise): Conv2d(64, 64, kernel_size=(1, 1), stride=(1, 1))
            (depthwise): Conv2d(64, 64, kernel_size=(5, 5), stride=(1, 1), padding=(2, 2), groups=64)
            (depthwise_dilated): Conv2d(64, 64, kernel_size=(5, 5), stride=(1, 1), padding=(6, 6), dilation=(3, 3), groups=64)
          )
        )
      )
      (conv): Sequential(
        (0): Conv2d(64, 80, kernel_size=(3, 3), stride=(1, 1), padding=(1, 1))
        (1): SiLU(inplace=True)
        (2): Conv2d(80, 64, kernel_size=(1, 1), stride=(1, 1))
      )
    )
    (3): FMBlock(
      (net): Sequential(
        (0): SMLayer(
          (norm1): LayerNorm(
            (body): BiasFree_LayerNorm()
          )
          (norm2): LayerNorm(
            (body): BiasFree_LayerNorm()
          )
          (spatial): Conv2d(64, 64, kernel_size=(7, 7), stride=(1, 1), padding=(3, 3), groups=64)
          (mlp1): SplitPointMlp(
            (fc): Sequential(
              (0): Conv2d(32, 64, kernel_size=(1, 1), stride=(1, 1))
              (1): SiLU(inplace=True)
              (2): Conv2d(64, 32, kernel_size=(1, 1), stride=(1, 1))
            )
          )
          (mlp2): SplitPointMlp(
            (fc): Sequential(
              (0): Conv2d(32, 64, kernel_size=(1, 1), stride=(1, 1))
              (1): SiLU(inplace=True)
              (2): Conv2d(64, 32, kernel_size=(1, 1), stride=(1, 1))
            )
          )
          (attn): Attention(
            (pointwise): Conv2d(64, 64, kernel_size=(1, 1), stride=(1, 1))
            (depthwise): Conv2d(64, 64, kernel_size=(5, 5), stride=(1, 1), padding=(2, 2), groups=64)
            (depthwise_dilated): Conv2d(64, 64, kernel_size=(5, 5), stride=(1, 1), padding=(6, 6), dilation=(3, 3), groups=64)
          )
        )
      )
      (conv): Sequential(
        (0): Conv2d(64, 80, kernel_size=(3, 3), stride=(1, 1), padding=(1, 1))
        (1): SiLU(inplace=True)
        (2): Conv2d(80, 64, kernel_size=(1, 1), stride=(1, 1))
      )
    )
    (4): FMBlock(
      (net): Sequential(
        (0): SMLayer(
          (norm1): LayerNorm(
            (body): BiasFree_LayerNorm()
          )
          (norm2): LayerNorm(
            (body): BiasFree_LayerNorm()
          )
          (spatial): Conv2d(64, 64, kernel_size=(7, 7), stride=(1, 1), padding=(3, 3), groups=64)
          (mlp1): SplitPointMlp(
            (fc): Sequential(
              (0): Conv2d(32, 64, kernel_size=(1, 1), stride=(1, 1))
              (1): SiLU(inplace=True)
              (2): Conv2d(64, 32, kernel_size=(1, 1), stride=(1, 1))
            )
          )
          (mlp2): SplitPointMlp(
            (fc): Sequential(
              (0): Conv2d(32, 64, kernel_size=(1, 1), stride=(1, 1))
              (1): SiLU(inplace=True)
              (2): Conv2d(64, 32, kernel_size=(1, 1), stride=(1, 1))
            )
          )
          (attn): Attention(
            (pointwise): Conv2d(64, 64, kernel_size=(1, 1), stride=(1, 1))
            (depthwise): Conv2d(64, 64, kernel_size=(5, 5), stride=(1, 1), padding=(2, 2), groups=64)
            (depthwise_dilated): Conv2d(64, 64, kernel_size=(5, 5), stride=(1, 1), padding=(6, 6), dilation=(3, 3), groups=64)
          )
        )
      )
      (conv): Sequential(
        (0): Conv2d(64, 80, kernel_size=(3, 3), stride=(1, 1), padding=(1, 1))
        (1): SiLU(inplace=True)
        (2): Conv2d(80, 64, kernel_size=(1, 1), stride=(1, 1))
      )
    )
  )
  (upsapling): Sequential(
    (0): Conv2d(64, 256, kernel_size=(1, 1), stride=(1, 1))
    (1): PixelShuffle(upscale_factor=2)
    (2): SiLU(inplace=True)
  )
  (tail): Conv2d(64, 3, kernel_size=(3, 3), stride=(1, 1), padding=(1, 1))
)
2023-05-14 15:46:16,887 INFO: Use Exponential Moving Average with decay: 0.999
2023-05-14 15:46:16,895 INFO: Network [sh7vanmul] is created.
2023-05-14 15:46:16,901 INFO: Loss [L1Loss] is created.
2023-05-14 15:46:16,902 INFO: Model [SRModel] is created.
2023-05-14 15:46:19,331 INFO: Start training from epoch: 0, iter: 0
2023-05-14 15:46:52,264 INFO: [Shuff..][epoch:  0, iter:     100, lr:(5.000e-04,)] [eta: 3 days, 1:54:11, time (data): 0.329 (0.102)] l_pix: 1.6136e-02 
…
