…
2023-05-05 15:17:56,754 INFO: Dataset [PairedImageDataset] - DF2K is built.
2023-05-05 15:17:56,755 INFO: Training statistics:
	Number of train images: 139995
	Dataset enlarge ratio: 100
	Batch size per gpu: 32
	World size (gpu number): 1
	Require iter number per epoch: 437485
	Total epochs: 3; iters: 1000000.
2023-05-05 15:17:56,756 INFO: Dataset [PairedImageDataset] - DIV2K_val100 is built.
2023-05-05 15:17:56,756 INFO: Number of val images/folders in DIV2K_val100: 5
2023-05-05 15:17:56,793 INFO: Network [sh7vanmul] is created.
2023-05-05 15:17:57,780 INFO: Network: sh7vanmul, with parameters: 372,819
2023-05-05 15:17:57,780 INFO: sh7vanmul(
  (to_feat): Conv2d(3, 64, kernel_size=(3, 3), stride=(1, 1), padding=(1, 1), bias=False)
  (blocks): Sequential(
    (0): FMBlock(
      (net): Sequential(
        (0): SMLayer(
          (norm1): LayerNorm(
            (body): BiasFree_LayerNorm()
          )
          (norm2): LayerNorm(
            (body): BiasFree_LayerNorm()
          )
          (spatial): Conv2d(64, 64, kernel_size=(7, 7), stride=(1, 1), padding=(3, 3), groups=64)
          (mlp1): SplitPointMlp(
            (fc): Sequential(
              (0): Conv2d(32, 64, kernel_size=(1, 1), stride=(1, 1))
              (1): SiLU(inplace=True)
              (2): Conv2d(64, 32, kernel_size=(1, 1), stride=(1, 1))
            )
          )
          (mlp2): SplitPointMlp(
            (fc): Sequential(
              (0): Conv2d(32, 64, kernel_size=(1, 1), stride=(1, 1))
              (1): SiLU(inplace=True)
              (2): Conv2d(64, 32, kernel_size=(1, 1), stride=(1, 1))
            )
          )
          (attn): Attention(
            (pointwise): Conv2d(64, 64, kernel_size=(1, 1), stride=(1, 1))
            (depthwise): Conv2d(64, 64, kernel_size=(5, 5), stride=(1, 1), padding=(2, 2), groups=64)
            (depthwise_dilated): Conv2d(64, 64, kernel_size=(5, 5), stride=(1, 1), padding=(6, 6), dilation=(3, 3), groups=64)
          )
        )
      )
      (conv): Sequential(
        (0): Conv2d(64, 80, kernel_size=(3, 3), stride=(1, 1), padding=(1, 1))
        (1): SiLU(inplace=True)
        (2): Conv2d(80, 64, kernel_size=(1, 1), stride=(1, 1))
      )
    )
    (1): FMBlock(
      (net): Sequential(
        (0): SMLayer(
          (norm1): LayerNorm(
            (body): BiasFree_LayerNorm()
          )
          (norm2): LayerNorm(
            (body): BiasFree_LayerNorm()
          )
          (spatial): Conv2d(64, 64, kernel_size=(7, 7), stride=(1, 1), padding=(3, 3), groups=64)
          (mlp1): SplitPointMlp(
            (fc): Sequential(
              (0): Conv2d(32, 64, kernel_size=(1, 1), stride=(1, 1))
              (1): SiLU(inplace=True)
              (2): Conv2d(64, 32, kernel_size=(1, 1), stride=(1, 1))
            )
          )
          (mlp2): SplitPointMlp(
            (fc): Sequential(
              (0): Conv2d(32, 64, kernel_size=(1, 1), stride=(1, 1))
              (1): SiLU(inplace=True)
              (2): Conv2d(64, 32, kernel_size=(1, 1), stride=(1, 1))
            )
          )
          (attn): Attention(
            (pointwise): Conv2d(64, 64, kernel_size=(1, 1), stride=(1, 1))
            (depthwise): Conv2d(64, 64, kernel_size=(5, 5), stride=(1, 1), padding=(2, 2), groups=64)
            (depthwise_dilated): Conv2d(64, 64, kernel_size=(5, 5), stride=(1, 1), padding=(6, 6), dilation=(3, 3), groups=64)
          )
        )
      )
      (conv): Sequential(
        (0): Conv2d(64, 80, kernel_size=(3, 3), stride=(1, 1), padding=(1, 1))
        (1): SiLU(inplace=True)
        (2): Conv2d(80, 64, kernel_size=(1, 1), stride=(1, 1))
      )
    )
    (2): FMBlock(
      (net): Sequential(
        (0): SMLayer(
          (norm1): LayerNorm(
            (body): BiasFree_LayerNorm()
          )
          (norm2): LayerNorm(
            (body): BiasFree_LayerNorm()
          )
          (spatial): Conv2d(64, 64, kernel_size=(7, 7), stride=(1, 1), padding=(3, 3), groups=64)
          (mlp1): SplitPointMlp(
            (fc): Sequential(
              (0): Conv2d(32, 64, kernel_size=(1, 1), stride=(1, 1))
              (1): SiLU(inplace=True)
              (2): Conv2d(64, 32, kernel_size=(1, 1), stride=(1, 1))
            )
          )
          (mlp2): SplitPointMlp(
            (fc): Sequential(
              (0): Conv2d(32, 64, kernel_size=(1, 1), stride=(1, 1))
              (1): SiLU(inplace=True)
              (2): Conv2d(64, 32, kernel_size=(1, 1), stride=(1, 1))
            )
          )
          (attn): Attention(
            (pointwise): Conv2d(64, 64, kernel_size=(1, 1), stride=(1, 1))
            (depthwise): Conv2d(64, 64, kernel_size=(5, 5), stride=(1, 1), padding=(2, 2), groups=64)
            (depthwise_dilated): Conv2d(64, 64, kernel_size=(5, 5), stride=(1, 1), padding=(6, 6), dilation=(3, 3), groups=64)
          )
        )
      )
      (conv): Sequential(
        (0): Conv2d(64, 80, kernel_size=(3, 3), stride=(1, 1), padding=(1, 1))
        (1): SiLU(inplace=True)
        (2): Conv2d(80, 64, kernel_size=(1, 1), stride=(1, 1))
      )
    )
    (3): FMBlock(
      (net): Sequential(
        (0): SMLayer(
          (norm1): LayerNorm(
            (body): BiasFree_LayerNorm()
          )
          (norm2): LayerNorm(
            (body): BiasFree_LayerNorm()
          )
          (spatial): Conv2d(64, 64, kernel_size=(7, 7), stride=(1, 1), padding=(3, 3), groups=64)
          (mlp1): SplitPointMlp(
            (fc): Sequential(
              (0): Conv2d(32, 64, kernel_size=(1, 1), stride=(1, 1))
              (1): SiLU(inplace=True)
              (2): Conv2d(64, 32, kernel_size=(1, 1), stride=(1, 1))
            )
          )
          (mlp2): SplitPointMlp(
            (fc): Sequential(
              (0): Conv2d(32, 64, kernel_size=(1, 1), stride=(1, 1))
              (1): SiLU(inplace=True)
              (2): Conv2d(64, 32, kernel_size=(1, 1), stride=(1, 1))
            )
          )
          (attn): Attention(
            (pointwise): Conv2d(64, 64, kernel_size=(1, 1), stride=(1, 1))
            (depthwise): Conv2d(64, 64, kernel_size=(5, 5), stride=(1, 1), padding=(2, 2), groups=64)
            (depthwise_dilated): Conv2d(64, 64, kernel_size=(5, 5), stride=(1, 1), padding=(6, 6), dilation=(3, 3), groups=64)
          )
        )
      )
      (conv): Sequential(
        (0): Conv2d(64, 80, kernel_size=(3, 3), stride=(1, 1), padding=(1, 1))
        (1): SiLU(inplace=True)
        (2): Conv2d(80, 64, kernel_size=(1, 1), stride=(1, 1))
      )
    )
    (4): FMBlock(
      (net): Sequential(
        (0): SMLayer(
          (norm1): LayerNorm(
            (body): BiasFree_LayerNorm()
          )
          (norm2): LayerNorm(
            (body): BiasFree_LayerNorm()
          )
          (spatial): Conv2d(64, 64, kernel_size=(7, 7), stride=(1, 1), padding=(3, 3), groups=64)
          (mlp1): SplitPointMlp(
            (fc): Sequential(
              (0): Conv2d(32, 64, kernel_size=(1, 1), stride=(1, 1))
              (1): SiLU(inplace=True)
              (2): Conv2d(64, 32, kernel_size=(1, 1), stride=(1, 1))
            )
          )
          (mlp2): SplitPointMlp(
            (fc): Sequential(
              (0): Conv2d(32, 64, kernel_size=(1, 1), stride=(1, 1))
              (1): SiLU(inplace=True)
              (2): Conv2d(64, 32, kernel_size=(1, 1), stride=(1, 1))
            )
          )
          (attn): Attention(
            (pointwise): Conv2d(64, 64, kernel_size=(1, 1), stride=(1, 1))
            (depthwise): Conv2d(64, 64, kernel_size=(5, 5), stride=(1, 1), padding=(2, 2), groups=64)
            (depthwise_dilated): Conv2d(64, 64, kernel_size=(5, 5), stride=(1, 1), padding=(6, 6), dilation=(3, 3), groups=64)
          )
        )
      )
      (conv): Sequential(
        (0): Conv2d(64, 80, kernel_size=(3, 3), stride=(1, 1), padding=(1, 1))
        (1): SiLU(inplace=True)
        (2): Conv2d(80, 64, kernel_size=(1, 1), stride=(1, 1))
      )
    )
  )
  (upsapling): Sequential(
    (0): Conv2d(64, 256, kernel_size=(1, 1), stride=(1, 1))
    (1): PixelShuffle(upscale_factor=2)
    (2): SiLU(inplace=True)
  )
  (tail): Conv2d(64, 3, kernel_size=(3, 3), stride=(1, 1), padding=(1, 1))
)
2023-05-05 15:17:57,780 INFO: Use Exponential Moving Average with decay: 0.999
2023-05-05 15:17:57,788 INFO: Network [sh7vanmul] is created.
2023-05-05 15:17:57,799 INFO: Loss [L1Loss] is created.
2023-05-05 15:17:57,800 INFO: Model [SRModel] is created.
2023-05-05 15:18:00,661 INFO: Start training from epoch: 0, iter: 0
2023-05-05 15:18:27,240 INFO: [Shuff..][epoch:  0, iter:     100, lr:(5.000e-04,)] [eta: 2 days, 9:37:22, time (data): 0.266 (0.041)] l_pix: 1.6138e-02 
…
