…
2024-08-28 20:24:34,461 INFO: Dataset [PairedImageDataset] - B100 is built.
2024-08-28 20:24:34,462 INFO: Number of val images/folders in B100: 100
2024-08-28 20:24:34,464 INFO: Dataset [PairedImageDataset] - Urban100 is built.
2024-08-28 20:24:34,464 INFO: Number of val images/folders in Urban100: 100
2024-08-28 20:24:34,467 INFO: Dataset [PairedImageDataset] - Manga109 is built.
2024-08-28 20:24:34,467 INFO: Number of val images/folders in Manga109: 109
2024-08-28 20:24:34,477 INFO: Network [sh7vanmul] is created.
2024-08-28 20:24:34,498 INFO: Network: sh7vanmul, with parameters: 372,819
2024-08-28 20:24:34,498 INFO: sh7vanmul(
  (to_feat): Conv2d(3, 64, kernel_size=(3, 3), stride=(1, 1), padding=(1, 1), bias=False)
  (blocks): Sequential(
    (0): FMBlock(
      (net): Sequential(
        (0): SMLayer(
          (norm1): LayerNorm(
            (body): BiasFree_LayerNorm()
          )
          (norm2): LayerNorm(
            (body): BiasFree_LayerNorm()
          )
          (spatial): Conv2d(64, 64, kernel_size=(7, 7), stride=(1, 1), padding=(3, 3), groups=64)
          (mlp1): SplitPointMlp(
            (fc): Sequential(
              (0): Conv2d(32, 64, kernel_size=(1, 1), stride=(1, 1))
              (1): SiLU(inplace=True)
              (2): Conv2d(64, 32, kernel_size=(1, 1), stride=(1, 1))
            )
          )
          (mlp2): SplitPointMlp(
            (fc): Sequential(
              (0): Conv2d(32, 64, kernel_size=(1, 1), stride=(1, 1))
              (1): SiLU(inplace=True)
              (2): Conv2d(64, 32, kernel_size=(1, 1), stride=(1, 1))
            )
          )
          (attn): Attention(
            (pointwise): Conv2d(64, 64, kernel_size=(1, 1), stride=(1, 1))
            (depthwise): Conv2d(64, 64, kernel_size=(5, 5), stride=(1, 1), padding=(2, 2), groups=64)
            (depthwise_dilated): Conv2d(64, 64, kernel_size=(5, 5), stride=(1, 1), padding=(6, 6), dilation=(3, 3), groups=64)
          )
        )
      )
      (conv): Sequential(
        (0): Conv2d(64, 80, kernel_size=(3, 3), stride=(1, 1), padding=(1, 1))
        (1): SiLU(inplace=True)
        (2): Conv2d(80, 64, kernel_size=(1, 1), stride=(1, 1))
      )
    )
    (1): FMBlock(
      (net): Sequential(
        (0): SMLayer(
          (norm1): LayerNorm(
            (body): BiasFree_LayerNorm()
          )
          (norm2): LayerNorm(
            (body): BiasFree_LayerNorm()
          )
          (spatial): Conv2d(64, 64, kernel_size=(7, 7), stride=(1, 1), padding=(3, 3), groups=64)
          (mlp1): SplitPointMlp(
            (fc): Sequential(
              (0): Conv2d(32, 64, kernel_size=(1, 1), stride=(1, 1))
              (1): SiLU(inplace=True)
              (2): Conv2d(64, 32, kernel_size=(1, 1), stride=(1, 1))
            )
          )
          (mlp2): SplitPointMlp(
            (fc): Sequential(
              (0): Conv2d(32, 64, kernel_size=(1, 1), stride=(1, 1))
              (1): SiLU(inplace=True)
              (2): Conv2d(64, 32, kernel_size=(1, 1), stride=(1, 1))
            )
          )
          (attn): Attention(
            (pointwise): Conv2d(64, 64, kernel_size=(1, 1), stride=(1, 1))
            (depthwise): Conv2d(64, 64, kernel_size=(5, 5), stride=(1, 1), padding=(2, 2), groups=64)
            (depthwise_dilated): Conv2d(64, 64, kernel_size=(5, 5), stride=(1, 1), padding=(6, 6), dilation=(3, 3), groups=64)
          )
        )
      )
      (conv): Sequential(
        (0): Conv2d(64, 80, kernel_size=(3, 3), stride=(1, 1), padding=(1, 1))
        (1): SiLU(inplace=True)
        (2): Conv2d(80, 64, kernel_size=(1, 1), stride=(1, 1))
      )
    )
    (2): FMBlock(
      (net): Sequential(
        (0): SMLayer(
          (norm1): LayerNorm(
            (body): BiasFree_LayerNorm()
          )
          (norm2): LayerNorm(
            (body): BiasFree_LayerNorm()
          )
          (spatial): Conv2d(64, 64, kernel_size=(7, 7), stride=(1, 1), padding=(3, 3), groups=64)
          (mlp1): SplitPointMlp(
            (fc): Sequential(
              (0): Conv2d(32, 64, kernel_size=(1, 1), stride=(1, 1))
              (1): SiLU(inplace=True)
              (2): Conv2d(64, 32, kernel_size=(1, 1), stride=(1, 1))
            )
          )
          (mlp2): SplitPointMlp(
            (fc): Sequential(
              (0): Conv2d(32, 64, kernel_size=(1, 1), stride=(1, 1))
              (1): SiLU(inplace=True)
              (2): Conv2d(64, 32, kernel_size=(1, 1), stride=(1, 1))
            )
          )
          (attn): Attention(
            (pointwise): Conv2d(64, 64, kernel_size=(1, 1), stride=(1, 1))
            (depthwise): Conv2d(64, 64, kernel_size=(5, 5), stride=(1, 1), padding=(2, 2), groups=64)
            (depthwise_dilated): Conv2d(64, 64, kernel_size=(5, 5), stride=(1, 1), padding=(6, 6), dilation=(3, 3), groups=64)
          )
        )
      )
      (conv): Sequential(
        (0): Conv2d(64, 80, kernel_size=(3, 3), stride=(1, 1), padding=(1, 1))
        (1): SiLU(inplace=True)
        (2): Conv2d(80, 64, kernel_size=(1, 1), stride=(1, 1))
      )
    )
    (3): FMBlock(
      (net): Sequential(
        (0): SMLayer(
          (norm1): LayerNorm(
            (body): BiasFree_LayerNorm()
          )
          (norm2): LayerNorm(
            (body): BiasFree_LayerNorm()
          )
          (spatial): Conv2d(64, 64, kernel_size=(7, 7), stride=(1, 1), padding=(3, 3), groups=64)
          (mlp1): SplitPointMlp(
            (fc): Sequential(
              (0): Conv2d(32, 64, kernel_size=(1, 1), stride=(1, 1))
              (1): SiLU(inplace=True)
              (2): Conv2d(64, 32, kernel_size=(1, 1), stride=(1, 1))
            )
          )
          (mlp2): SplitPointMlp(
            (fc): Sequential(
              (0): Conv2d(32, 64, kernel_size=(1, 1), stride=(1, 1))
              (1): SiLU(inplace=True)
              (2): Conv2d(64, 32, kernel_size=(1, 1), stride=(1, 1))
            )
          )
          (attn): Attention(
            (pointwise): Conv2d(64, 64, kernel_size=(1, 1), stride=(1, 1))
            (depthwise): Conv2d(64, 64, kernel_size=(5, 5), stride=(1, 1), padding=(2, 2), groups=64)
            (depthwise_dilated): Conv2d(64, 64, kernel_size=(5, 5), stride=(1, 1), padding=(6, 6), dilation=(3, 3), groups=64)
          )
        )
      )
      (conv): Sequential(
        (0): Conv2d(64, 80, kernel_size=(3, 3), stride=(1, 1), padding=(1, 1))
        (1): SiLU(inplace=True)
        (2): Conv2d(80, 64, kernel_size=(1, 1), stride=(1, 1))
      )
    )
    (4): FMBlock(
      (net): Sequential(
        (0): SMLayer(
          (norm1): LayerNorm(
            (body): BiasFree_LayerNorm()
          )
          (norm2): LayerNorm(
            (body): BiasFree_LayerNorm()
          )
          (spatial): Conv2d(64, 64, kernel_size=(7, 7), stride=(1, 1), padding=(3, 3), groups=64)
          (mlp1): SplitPointMlp(
            (fc): Sequential(
              (0): Conv2d(32, 64, kernel_size=(1, 1), stride=(1, 1))
              (1): SiLU(inplace=True)
              (2): Conv2d(64, 32, kernel_size=(1, 1), stride=(1, 1))
            )
          )
          (mlp2): SplitPointMlp(
            (fc): Sequential(
              (0): Conv2d(32, 64, kernel_size=(1, 1), stride=(1, 1))
              (1): SiLU(inplace=True)
              (2): Conv2d(64, 32, kernel_size=(1, 1), stride=(1, 1))
            )
          )
          (attn): Attention(
            (pointwise): Conv2d(64, 64, kernel_size=(1, 1), stride=(1, 1))
            (depthwise): Conv2d(64, 64, kernel_size=(5, 5), stride=(1, 1), padding=(2, 2), groups=64)
            (depthwise_dilated): Conv2d(64, 64, kernel_size=(5, 5), stride=(1, 1), padding=(6, 6), dilation=(3, 3), groups=64)
          )
        )
      )
      (conv): Sequential(
        (0): Conv2d(64, 80, kernel_size=(3, 3), stride=(1, 1), padding=(1, 1))
        (1): SiLU(inplace=True)
        (2): Conv2d(80, 64, kernel_size=(1, 1), stride=(1, 1))
      )
    )
  )
  (upsapling): Sequential(
    (0): Conv2d(64, 256, kernel_size=(1, 1), stride=(1, 1))
    (1): PixelShuffle(upscale_factor=2)
    (2): SiLU(inplace=True)
  )
  (tail): Conv2d(64, 3, kernel_size=(3, 3), stride=(1, 1), padding=(1, 1))
)
2024-08-28 20:24:34,508 INFO: Loading sh7vanmul model from /data1/zhuyifan/ShuffleMixer-main/experiments/1104_DF2K_x2/models/net_g_30000.pth, with param key: [params].
2024-08-28 20:24:34,521 INFO: Use Exponential Moving Average with decay: 0.999
2024-08-28 20:24:34,528 INFO: Network [sh7vanmul] is created.
2024-08-28 20:24:34,538 INFO: Loading sh7vanmul model from /data1/zhuyifan/ShuffleMixer-main/experiments/1104_DF2K_x2/models/net_g_30000.pth, with param key: [params_ema].
…
